notebooks/model/dlq_agent_model_v002.pth (torch, 74378 bytes, 5 tensors)

fc1.weight f4 [128, 9]
0	0xbe94c000	-0.29052734
1	0xbd5cd71e	-0.05391609
2	0xbe2e5c1e	-0.17027327
3	0x3e76af6e	0.24090359
4	0xbe82d8b7	-0.25555965
5	0xbdc6fd4e	-0.09716283
6	0xbe8cf428	-0.27530026
7	0x3d818a48	0.06325203
8	0xbde6739e	-0.11252521
9	0xbdb830e7	-0.089937024
10	0xbe7201db	-0.2363352
11	0xbe53d900	-0.20688248
12	0xbe5e68f9	-0.21719731
13	0xbe5a1b21	-0.21299411
14	0xbe317fcb	-0.17333905
15	0x3e09b214	0.13446838
16	0xbe195282	-0.1497288
17	0xbdc2fbfb	-0.09520718
18	0xbd9ff584	-0.078105
19	0x3e601b32	0.21885374
20	0xbc8ce956	-0.017201107
21	0xbde63b51	-0.112417825
22	0x3de6c65d	0.112683035
23	0xbe511db5	-0.20421489
24	0xbd20f7b6	-0.039298736
25	0xbe98efa3	-0.29870328
26	0x3ce60b71	0.028081628
27	0xbd51622c	-0.051119015
28	0xbda74776	-0.08167927
29	0xbe89bb54	-0.26900733
30	0xbdfac511	-0.12244619
31	0x3e142cab	0.14470164
32	0xbdd06891	-0.101761945
33	0x38dd7803	0.00010560455
34	0xbdf7f8b6	-0.12107985
35	0x3e76f3b1	0.24116398
36	0xbe886766	-0.26641387
37	0x3e67c14e	0.22632334
38	0xbe760f6c	-0.2402932
39	0x3d2f9c5b	0.04287372
40	0x3da8528a	0.08218868
41	0xbe875987	-0.2643549
42	0x3dcd6866	0.10029678
43	0x3dfcbcd5	0.12340704
44	0x3e4a9208	0.19782269
45	0x3db5d5ef	0.08878695
46	0x3ca06b92	0.019582544
47	0x3e4c0b00	0.19926071
48	0xbdbcfb90	-0.09227669
49	0x3e7a8050	0.2446301
50	0xbe6a8f55	-0.2290624
51	0xbe9966d2	-0.29961258
52	0xbe22e859	-0.15908946
53	0x3dd91f5e	0.10601686
54	0x3e584545	0.21120174
55	0xbe162379	-0.14661969
56	0x3e292dad	0.1652133
57	0xbe63afe3	-0.22235064
58	0xbe0185cb	-0.12648694
59	0x3e79bbd9	0.24388064
60	0xbde7a4f5	-0.1131076
61	0x3eaa4486	0.33255404
62	0x3e027312	0.12739208
63	0x3c33d88a	0.01097692
64	0xbe2a804e	-0.16650507
65	0x3e2c3bf8	0.16819751
66	0x3dccef06	0.100065276
67	0xbdbc03d0	-0.09180415
68	0x3e4283c9	0.18995585
69	0x3eab20f4	0.3342358
70	0xbd30f422	-0.043201573
71	0xbe18ca5f	-0.14920948
72	0x3d08cf79	0.033400986
73	0xbe82dcf2	-0.25559193
74	0xbd7794be	-0.060444586
75	0xbe89d7cd	-0.26922455
76	0x3e4eb27c	0.20185274
77	0xbe2bdb99	-0.16782989
78	0xb804df55	-3.1679247e-05
79	0x028e620c	2.09213e-37
80	0x3e44e263	0.19226985
81	0x3e2248a8	0.15848029
82	0xbe672750	-0.2257359
83	0xbe0c5f7a	-0.13708296
84	0x3e435807	0.19076549
85	0x3e5dad90	0.2164824
86	0xbe39bdbb	-0.18138783
87	0xbe078fc7	-0.1323844
88	0x3e95ecb9	0.29282168
89	0xbe9918e3	-0.299018
90	0xbe80f64c	-0.2518791
91	0x3e1de005	0.15417488
92	0x3e531a34	0.20615464
93	0x3c90aec4	0.01766146
94	0xbe2a0465	-0.16603239
95	0x3d0ccdd2	0.034375973
96	0x3eaf75d0	0.3426957
97	0xbd1c7047	-0.038193014
98	0xbe03f713	-0.1288722
99	0x3d18e8fc	0.037331566
100	0x3de49c88	0.111626685
101	0xbe1c0e60	-0.15239859
102	0xbe296058	-0.16540658
103	0x3e7da109	0.24768461
104	0xbe51ea34	-0.20499498
105	0x3c903be8	0.01760669
106	0xbe8de51d	-0.27713862
107	0xbe5cc1ec	-0.2155835
108	0xbd46fa86	-0.04857876
109	0x3dea2a9a	0.11433907
110	0xbcb466b8	-0.022021636
111	0xbe58475f	-0.21120976
112	0x32085f2c	7.9378815e-09
113	0xbe42eaac	-0.19034833
114	0x3e1e8fa7	0.15484487
115	0xbcf323fc	-0.029680245
116	0x3e3c0e1b	0.18364756
117	0xbe8e2e2f	-0.2776961
118	0x3eb35274	0.35023844
119	0x3ea1911b	0.3155602
120	0x3d98c964	0.07460287
121	0x3eb66c9c	0.35629737
122	0x3d80b61b	0.06284734
123	0xbdfd7851	-0.12376464
124	0x3de860e0	0.113466024
125	0x3da5d8f5	0.08098022
126	0x3e5d6cd0	0.2162354
127	0x3e87d1a4	0.2652713
128	0xbdcd5aa9	-0.10027058
129	0x3e236c3a	0.15959254
130	0xbd920fc5	-0.07131914
131	0x3e8d27a3	0.27569303
132	0x3e696df2	0.22795847
133	0x3d4eaced	0.050457884
134	0x3e5e4ac0	0.21708202
135	0x3ea36f0c	0.3192066
136	0xbda64161	-0.08117939
137	0x3b9ee23a	0.0048487457
138	0x3e86986c	0.26288164
139	0xbe76bb74	-0.24094945
140	0x3e5c9f9f	0.21545266
141	0x3e5620ce	0.20910951
142	0xbdbba85b	-0.09162971
143	0xbca05357	-0.01957099
144	0x3e84d389	0.2594264
145	0xbe87837f	-0.2646751
146	0xbe03e193	-0.12879018
147	0x3e5f9eb6	0.21837887
148	0x3e9edff1	0.3103023
149	0x3dd7cd56	0.105372116
150	0xbdbdcc75	-0.09267513
151	0x3e3d2fe1	0.18475296
152	0x3ea4a367	0.32155916
153	0xbd8ee036	-0.069763586
154	0x3e4cad75	0.19988044
155	0xbe8e21d2	-0.27760178
156	0xbabf5e73	-0.0014600292
157	0xbca32bcd	-0.019918347
158	0xbdbf469a	-0.09339638
159	0xbe305b25	-0.17222269
160	0x03369dd8	5.366619e-37
161	0xbe9446fe	-0.28960413
162	0xbcd20780	-0.025638342
163	0xbe52d8ab	-0.20590465
164	0xbdd63859	-0.10459966
165	0x3ea8eb9e	0.32992262
166	0x3dc5e777	0.09663289
167	0xbe400e24	-0.18755394
168	0xbd9efe8d	-0.077633955
169	0x3e9ff437	0.3124101
170	0xbe28eb36	-0.16495976
171	0xbddb7b42	-0.10716869
172	0x3ea4ae4f	0.32164237
173	0xbe06dda8	-0.13170493
174	0x3e0ad916	0.13559374
175	0x3e674e0b	0.22588365
176	0x3e3eae94	0.18621284
177	0xbc747cdb	-0.014922346
178	0x3e028bde	0.12748668
179	0xbe94fda6	-0.29099768
180	0xbe49548c	-0.19661158
181	0xbe808f6a	-0.25109416
182	0x3e50947b	0.20369141
183	0x3e845c10	0.25851488
184	0xbe89717a	-0.26844388
185	0x3ea749e5	0.32673565
186	0x3e36c0fb	0.17847054
187	0x3e352153	0.17688493
188	0xbe2085db	-0.15676062
189	0x3def901c	0.116974086
190	0xbe8e0594	-0.2773863
191	0x3eb95a7a	0.3620184
192	0x3da44fbc	0.080230206
193	0x3e62822c	0.22119969
194	0x3df15f86	0.11785798
195	0xbe777800	-0.2416687
196	0xbe58ab6c	-0.21159142
197	0xbbce166d	-0.0062892945
198	0x3df6cac1	0.12050391
199	0x3ea3ee08	0.3201754
200	0x3db9299b	0.09041139
201	0x3ead31f8	0.33827186
202	0x3e065169	0.13116993
203	0x3e5440b7	0.20727812
204	0xbe58a722	-0.21157506
205	0x3de4287c	0.11140534
206	0x3b4c1e1d	0.0031145879
207	0x3e8b6187	0.27222845
208	0x3eb6416c	0.35596788
209	0x3e405c92	0.18785313
210	0xbdf93aca	-0.12169416
211	0x3e4277d6	0.18991026
212	0x3ebdfe75	0.37108198
213	0x3deb375a	0.11485167
214	0xbdf0f05b	-0.11764594
215	0x3eaaa533	0.33329162
216	0xbe907255	-0.28212228
217	0xbae3f97c	-0.0017393078
218	0x3e660486	0.22462663
219	0xbe610331	-0.21973874
220	0x3d143826	0.03618636
221	0x3ad031cf	0.0015883985
222	0xbe8209f3	-0.25398216
223	0xbe2b6d90	-0.16741014
224	0x3d703856	0.058647476
225	0xbe8ce839	-0.27520922
226	0x3eb0bd9e	0.34519666
227	0xbcdaa60e	-0.02669051
228	0x3de653a0	0.11246419
229	0xbd895536	-0.06705706
230	0x3e805c5a	0.2507046
231	0xbe4c1dd3	-0.19933252
232	0x3e8edb0e	0.279015
233	0x3d91a54e	0.071116075
234	0xbdef04cb	-0.11670836
235	0x3e4a707d	0.19769473
236	0x3c228139	0.009918504
237	0x3e903ea1	0.28172782
238	0x3eaa197d	0.3322257
239	0x3e93b559	0.28849295
240	0xbd3b3583	-0.04570533
241	0xbd9ca33d	-0.07648323
242	0x3e2b6aa7	0.16739903
243	0xbbb7691b	-0.0055972463
244	0x3dce9248	0.10086495
245	0xbe8d7f68	-0.27636266
246	0x3da3d9fe	0.08000563
247	0xbe2a65e0	-0.16640425
248	0x3e4dda1a	0.2010273
249	0xbe68c431	-0.22731091
250	0xbd8b5d6c	-0.06804928
251	0x3ea7c845	0.3276998
252	0x3eb23310	0.34804583
253	0x3e280468	0.16407931
254	0x3e0a561b	0.13509409
255	0x3d5778b5	0.05260535

fc1.bias f4 [128]
0	0x3702ed66	7.803877e-06
1	0x3e10727c	0.14106172
2	0xbe494be8	-0.19657862
3	0xbe6acb85	-0.22929199
4	0xbe0ac74f	-0.13552593
5	0xbe52576c	-0.20541161
6	0x3e1f8761	0.15578987
7	0xbe0b7026	-0.13617
8	0xbe36e897	-0.17862163
9	0xbe816f03	-0.25280008
10	0xbe883051	-0.26599362
11	0xbd151f82	-0.036407
12	0x3e30dc89	0.17271627
13	0xbe84456c	-0.25834215
14	0x3e9e5cb2	0.30930096
15	0x3e212caf	0.15739702
16	0x3e6d979f	0.2320237
17	0x37c1bd65	2.3095587e-05
18	0xbd9cb339	-0.076513715
19	0xbe6c6d14	-0.23088485
20	0x3e5cdfdf	0.21569775
21	0x3d97f9cd	0.074206926
22	0x3e8f3145	0.27967277
23	0x3d54dcd4	0.05196841
24	0xbe53b3ab	-0.20674007
25	0xbe2903ec	-0.16505402
26	0xb950beae	-0.0001990746
27	0xbe5f95f3	-0.21834545
28	0x3d12416e	0.03570693
29	0xbccfebba	-0.025380958
30	0xbe58ed14	-0.21184188
31	0x3e28ec2a	0.1649634
32	0x3e2b355c	0.16719574
33	0x3d3409e3	0.04395474
34	0xbe47b06b	-0.19500892
35	0x3c2bbc98	0.010481976
36	0x3e926812	0.28595024
37	0x3d6713de	0.05641543
38	0xbe0052fb	-0.12531655
39	0x3d37a43c	0.04483436
40	0x3e506db3	0.20354347
41	0xbdac690a	-0.08418472
42	0x3ba7b98e	0.0051185554
43	0xbc868d96	-0.016424935
44	0xbe4ea4a2	-0.2017999
45	0xbe946201	-0.2898102
46	0x3a7c0b4b	0.000961472
47	0xbdee1f06	-0.11627011
48	0x3d8e8837	0.06959575
49	0x92f07095	-1.5173883e-27
50	0xbe9246f3	-0.28569755
51	0x3e890d9e	0.26768202
52	0xbdfac429	-0.12244446
53	0x3e89bde3	0.26902685
54	0x3d178ddf	0.037000533
55	0x3d5b3f4e	0.05352717
56	0x3c113921	0.008863718
57	0xbe5be932	-0.21475676
58	0x3e7563b0	0.23963809
59	0xbe6c263a	-0.23061457
60	0x3d9170f5	0.07101623
61	0x3eb2b3ec	0.34902894
62	0x3e3f3aaa	0.18674722
63	0x3e8dbb25	0.27681842
64	0x3c8e4ea5	0.017371485
65	0x82a96018	-2.4887473e-37
66	0xbe053dd7	-0.13011871
67	0x3cab4110	0.020905048
68	0xbbbc98e9	-0.005755533
69	0x3da2908d	0.07937727
70	0x3ddc36b9	0.10752625
71	0x3e1e8798	0.15481412
72	0x3de3f66a	0.11130984
73	0x3e2eeade	0.17081782
74	0x3eb201ee	0.34767097
75	0x3e5c5ca8	0.2151972
76	0xbe107485	-0.14106949
77	0xbda3882b	-0.07984956
78	0x3ea5febf	0.32420918
79	0xbc89a10f	-0.016800432
80	0xbd4e1be8	-0.050319582
81	0x3e26a90d	0.16275425
82	0x3d5f6a41	0.05454469
83	0xbde9dcb3	-0.11419048
84	0x3e70ab72	0.23502901
85	0xbe88e4c0	-0.26737022
86	0x3dc9b666	0.09849243
87	0x3e711a3b	0.23545162
88	0xbb7b3f3f	-0.0038337258
89	0xbe0b36d9	-0.13595141
90	0x3ea2d08e	0.3179974
91	0x3e09d96d	0.13461848
92	0xbe67b2c1	-0.22626783
93	0xbe7cc575	-0.24684699
94	0xbe73b688	-0.23800099
95	0x3e6ff882	0.23434642
96	0x3e74abc9	0.23893656
97	0x3e6aca8e	0.22928831
98	0x3e357510	0.17720437
99	0x3e680e7a	0.22661772
100	0x3c07ac97	0.008280895
101	0xbe691632	-0.22762373
102	0x3ea67d61	0.32517532
103	0x3e3ef7cd	0.18649216
104	0x3e68262b	0.2267081
105	0x3e811873	0.25213966
106	0x3e0e0211	0.13867976
107	0xbe457aff	-0.192852
108	0x3e3e42b9	0.1858014
109	0x3df35468	0.118813336
110	0xbe4b1d7b	-0.19835465
111	0xbe04d41d	-0.1297154
112	0xbbc6adf4	-0.0060632173
113	0x3ea252dc	0.31703842
114	0x3eb31ca6	0.34982795
115	0xbc28ce33	-0.010303068
116	0xbd8f83c8	-0.07007557
117	0xba5ce49c	-0.00084263994
118	0x3cc0f292	0.023553167
119	0x3e15c264	0.14624935
120	0xbccf3e6b	-0.025298318
121	0xbe910ee9	-0.28331688
122	0xbe2acec6	-0.1668044
123	0x3d282804	0.041053787
124	0xbe8c3d0b	-0.27390322
125	0xbe24ce2a	-0.1609427
126	0xbd948f8b	-0.07253941
127	0x3e2fa79a	0.17153779

fc2.weight f4 [128, 128]
0	0x3918e8ba	0.00014582547
1	0xbcf24b3d	-0.029576892
2	0xbc2c65df	-0.010522335
3	0xbc08b86b	-0.00834475
4	0x3d008c64	0.031383887
5	0x3d4056aa	0.04695765
6	0xbd80415f	-0.062624685
7	0x3c64165a	0.013921345
8	0x394abc6a	0.00019334411
9	0x3c347212	0.011013525
10	0x3d088d56	0.033337913
11	0xb628a84a	-2.5131908e-06
12	0xb98e1c58	-0.00027105468
13	0x3d81d17f	0.06338786
14	0x3d1dfe2a	0.038572468
15	0xbc17f61d	-0.009274987
16	0x39854813	0.00025421436
17	0x3c1bb17a	0.009502763
18	0xbd24d261	-0.040239695
19	0xbd2f868e	-0.04285293
20	0xbd741a34	-0.0595953
21	0xbc6c5801	-0.014425279
22	0xbcb38d7e	-0.021918055
23	0x3d054340	0.032534838
24	0xbcd8b396	-0.02645282
25	0x3c1b9308	0.009495504
26	0x3ce5a9df	0.028035102
27	0xbd5e45af	-0.054265674
28	0x3d8efdb1	0.069819815
29	0xbc6fb7d4	-0.01463123
30	0x3b094b9d	0.002094961
31	0xbd95f52b	-0.07322153
32	0x3b35d9c9	0.0027748218
33	0x3d37f847	0.04491451
34	0xbd8cbcd3	-0.06871953
35	0x3d6a57a9	0.057212505
36	0x3c14e01a	0.009086633
37	0x3c555559	0.013020837
38	0x3d964749	0.07337815
39	0xbc66cb0f	-0.014086499
40	0x3d812b98	0.06307143
41	0xbc8fdb33	-0.017560577
42	0x3cdeb3bb	0.027185312
43	0x3cc5f8de	0.02416652
44	0x3ab0f76a	0.001350147
45	0xbcdfd793	-0.027324473
46	0x3d5ec3b3	0.054385852
47	0xbd90b7e4	-0.07066324
48	0xbc0a1290	-0.008427277
49	0xbb8e44f8	-0.004341718
50	0x3d628f13	0.055312227
51	0x3d515556	0.051106773
52	0xbd5a4630	-0.053289592
53	0x3c7a0eb6	0.015262296
54	0xbd07afc4	-0.033126608
55	0x3d156167	0.036469843
56	0x3d478806	0.048713706
57	0xb62817e9	-2.5047868e-06
58	0x3c88d2b0	0.016702026
59	0xbda8cf93	-0.08242717
60	0xbcdb0a32	-0.02673826
61	0x3d68f754	0.056876495
62	0x3aa9e376	0.0012961465
63	0xbd470a65	-0.048593897
64	0xbcaa32d2	-0.020776186
65	0xbd3e1cba	-0.046414115
66	0x3ba50f27	0.0050372067
67	0xbd122788	-0.03568223
68	0x3d28efe4	0.041244403
69	0xbd5d645b	-0.054050785
70	0x3d0683e2	0.032840617
71	0xbc93b5f4	-0.018031098
72	0x3d6dd604	0.05806543
73	0xbd5ca67e	-0.053869717
74	0x3cafa645	0.021441588
75	0x3d0efe63	0.03491057
76	0xbba2489b	-0.004952503
77	0x3d2042f0	0.039126337
78	0x3d67b372	0.056567617
79	0x3c88bd4f	0.016691832
80	0xbd4baeeb	-0.04972736
81	0xbd03f5bb	-0.03221677
82	0xbccea6c3	-0.025226003
83	0x3c8bddc9	0.017073529
84	0x3cc84bb2	0.024450157
85	0x3d6e68e5	0.058205504
86	0xbd33d4ca	-0.043904103
87	0xbc6a1c01	-0.014288903
88	0xbc3b80b5	-0.01144426
89	0x38bf9686	9.135627e-05
90	0xbd0de88b	-0.0346456
91	0x3d4859d2	0.048913784
92	0xbd0cff5f	-0.03442323
93	0xbd05a988	-0.03263238
94	0x3ad05e12	0.0015897176
95	0xbdb22d7c	-0.08700082
96	0x3d28f161	0.041245822
97	0xa61fe582	-5.547525e-16
98	0xbd79fe25	-0.061033387
99	0xbdb7371b	-0.089460574
100	0xbdb5ff84	-0.08886626
101	0x3d426940	0.047463655
102	0xbd70fe8f	-0.058836516
103	0xbc4475be	-0.011990963
104	0xbc978938	-0.018498048
105	0xbc2b81b7	-0.010467938
106	0xbd9516e5	-0.072797574
107	0xbd328ac1	-0.043589357
108	0x3d4a2891	0.049355093
109	0xbd14568a	-0.036215343
110	0x3a6da4b3	0.00090653746
111	0xbdc31a48	-0.09526497
112	0xba5e6fa3	-0.0008485263
113	0xbd2a9a8e	-0.0416513
114	0x3d421d8f	0.04739147
115	0xbd26b2a2	-0.0406977
116	0x3d954089	0.072877
117	0x3a8e9310	0.0010877568
118	0x3ba29ba6	0.0049624024
119	0xbdbad535	-0.09122697
120	0xbc7c2f52	-0.015392141
121	0x3b12ef84	0.0022420594
122	0xbcf1db9c	-0.029523663
123	0x3d191b25	0.037379403
124	0xbd8d525b	-0.06900474
125	0xbb57d865	-0.0032935378
126	0x3cae606f	0.021286217
127	0x3d9ddba7	0.07707911
128	0x3c9222a7	0.01783879
129	0x2cb3cf56	5.110505e-12
130	0x2d232ef4	9.275903e-12
131	0xbaaef107	-0.0013346978
132	0xbce403f8	-0.027833924
133	0xbc5ce220	-0.013481647
134	0xb9175138	-0.00014430739
135	0xbbbeabfc	-0.005818842
136	0x3ceec6ba	0.029147495
137	0x3cb53ef4	0.022124745
138	0xbc31ee82	-0.010860087
139	0xbc168eb8	-0.0091893
140	0x032d8847	5.099657e-37
141	0x82ab3322	-2.515554e-37
142	0x3c65b61e	0.014020471
143	0xbcdc2026	-0.026870798
144	0x3d466624	0.048437253
145	0x3d4592a8	0.048235565
146	0x23553786	1.1558511e-17
147	0x39a86fac	0.0003212666
148	0xbcc9d116	-0.024635833
149	0xbd4058ad	-0.046959568
150	0xbc83bbb5	-0.016080717
151	0x38c73cca	9.500382e-05
152	0xbd17625b	-0.036959033
153	0xb4a6f052	-3.1094766e-07
154	0xbc6b2795	-0.014352699
155	0x3c2e21d4	0.010628182
156	0x3cafee1b	0.021475842
157	0x298be35c	6.2122806e-14
158	0x3b9cb1a5	0.004781919
159	0x3cdc8d68	0.026922897
160	0x1a3347f1	3.7074446e-23
161	0x3844438d	4.6792953e-05
162	0xbd45fa4d	-0.04833441
163	0xbcba3dbc	-0.022734515
164	0xad2a6c0a	-9.687371e-12
165	0xbca07abe	-0.019589778
166	0x3bc3abf0	0.0059714243
167	0x3c8a7e40	0.016905904
168	0x3bbadeaa	0.005702813
169	0xbd34e45b	-0.04416309
170	0xbb212dcf	-0.0024593954
171	0xbb5233c5	-0.0032074314
172	0x3d464ea1	0.04841483
173	0xbcfb97b2	-0.030711982
174	0xbc47519f	-0.012165456
175	0x3b1c670a	0.0023865127
176	0x2626fee0	5.793824e-16
177	0x3846fa83	4.7440186e-05
178	0x3cdd9184	0.027046926
179	0x3bc7461a	0.006081355
180	0x3bd31941	0.0064422195
181	0x3b071ab3	0.002061528
182	0x3d1ccefb	0.03828333
183	0xb4c69043	-3.6985338e-07
184	0x3c009beb	0.007849674
185	0xbd53bfa1	-0.051696423
186	0xbcd00e14	-0.025397338
187	0x3d65ac0a	0.056072272
188	0x02b359b8	2.6353182e-37
189	0xbc6ffaa4	-0.01464716
190	0x39fc6357	0.000481392
191	0xbd063742	-0.03276754
192	0x3cc907c7	0.024539841
193	0x3d0aef28	0.033919483
194	0x3d59b105	0.053147335
195	0xbc7a43dc	-0.015274968
196	0x3b7a5950	0.0038200207
197	0xbcb1643f	-0.021654246
198	0xbd432739	-0.047644828
199	0xbc90ed5c	-0.017691307
200	0xbd16468e	-0.03668838
201	0x3c63bd4e	0.013900114
202	0xbac77bb8	-0.0015219366
203	0x01aa00cd	6.2449286e-38
204	0xbd450107	-0.048096683
205	0xbc1d8829	-0.009614983
206	0xbb2b9b61	-0.0026185142
207	0x3c353fad	0.011062545
208	0x3d1f1193	0.03883512
209	0xb9803139	-0.00024450736
210	0x1b693938	1.9291797e-22
211	0xb14918ed	-2.9263518e-09
212	0x3c668eaa	0.0140721
213	0xbcf9be6b	-0.030486306
214	0xbd0cf46b	-0.034412783
215	0xbd4651d9	-0.0484179
216	0xbd086aa5	-0.03330483
217	0x3c28460f	0.0102706095
218	0x3d52f61b	0.051504236
219	0x3c3e4625	0.011613403
220	0xbcb945f6	-0.022616368
221	0xbc1dc151	-0.00962861
222	0x3cf08329	0.029359417
223	0xbbafa83d	-0.0053606317
224	0x3c266d3e	0.010157881
225	0x3bd8af13	0.0066126673
226	0x303cd9ba	6.870341e-10
227	0xbc539220	-0.012913257
228	0xbd007c67	-0.03136864
229	0x3d3fac04	0.046794906
230	0xbd2cc7b0	-0.042182624
231	0x3cd6c3d4	0.026216425
232	0xbcbd74d7	-0.023127003
233	0x3bf6e80f	0.0075349878
234	0x3d4bea7e	0.049784176
235	0x31825eda	3.7942813e-09
236	0xbcd9db13	-0.02659372
237	0x3d2a77d4	0.041618183
238	0xbb9e4f8b	-0.0048312596
239	0xbd6a2aaa	-0.057169594
240	0x39a68a86	0.00031765195
241	0x3d0577aa	0.032584824
242	0x3d56db06	0.05245497
243	0x3d279c9e	0.040920846
244	0x3ba70e3c	0.0050981324
245	0xbc0c6fa1	-0.008571536
246	0xbcdb8154	-0.026795067
247	0x3d66e208	0.056367904
248	0xbd0e0662	-0.034674056
249	0x3d257b7e	0.040400974
250	0x3cf1d8bd	0.029522294
251	0x3d218db4	0.03944178
252	0xbd124307	-0.035708454
253	0x394ed85e	0.00019726294
254	0x3d0adfe1	0.033904914
255	0xbd3c3087	-0.045944717

fc2.bias f4 [128]
0	0x3d2d007c	0.04223679
1	0xbd46cdd1	-0.048536126
2	0x3c286506	0.010277992
3	0xbd545ab8	-0.05184433
4	0x3ca9242b	0.020647129
5	0x3ddeced5	0.10879294
6	0x3db83861	0.089951284
7	0x3d8806b9	0.06641907
8	0x3d995ec9	0.07488782
9	0xbc5aabd0	-0.013346627
10	0xbce1a837	-0.027546031
11	0x3d4cc587	0.049993064
12	0xbd584ba5	-0.052806515
13	0x3cf8f885	0.03039194
14	0x3c9769ce	0.018483069
15	0x3d3147e6	0.04328146
16	0x3dc645ff	0.096813194
17	0x3d1f2f49	0.038863454
18	0x3ce88c82	0.028387312
19	0x3dd42850	0.103592515
20	0xbd2ec526	-0.042668484
21	0xbd72d0bf	-0.059281107
22	0x3d094400	0.033512115
23	0xbd42a538	-0.047520846
24	0xbd2fcc29	-0.04291931
25	0x3dd0f794	0.10203472
26	0xbcb4a4f6	-0.022051316
27	0x3d87fa3b	0.066395245
28	0x35d2aa7a	1.5695834e-06
29	0x3c93804b	0.01800551
30	0x3d7594dc	0.059956416
31	0x3d883d1f	0.06652283
32	0xbca76708	-0.020434871
33	0x3cd4aef6	0.025962334
34	0x3def93e2	0.11698128
35	0x3dc58340	0.096441746
36	0x3cc2c243	0.023774272
37	0x3d3e8d27	0.046521332
38	0x3bceedd0	0.0063149706
39	0xbd29b230	-0.0414297
40	0xbdb3b0a7	-0.08773928
41	0x3d760a20	0.06006825
42	0xbcc33bef	-0.02383229
43	0xbdac7f1d	-0.084226824
44	0xbd328833	-0.04358692
45	0xbc8f0caf	-0.017462103
46	0xbd326711	-0.043555323
47	0xbcdf526e	-0.027260985
48	0x3c4e78ef	0.012602075
49	0x3afa631c	0.0019103023
50	0xbd5fc252	-0.054628678
51	0x3d761336	0.060076915
52	0x3bba5ea5	0.005687552
53	0x3d1dd4c3	0.038532984
54	0x3c78b1bf	0.015179097
55	0xbd025949	-0.03182343
56	0x3d54e925	0.051980156
57	0x3d90c3ac	0.070685714
58	0xbd651aa4	-0.05593361
59	0x3d9aabc2	0.075522915
60	0x3d0e89c6	0.03479936
61	0xbcff8dbb	-0.031195512
62	0xbdceb58f	-0.10093223
63	0xbd356301	-0.04428387
64	0x3de926b4	0.11384335
65	0xbcb4a039	-0.022049056
66	0x3d1d40ad	0.038391758
67	0x3d8b3534	0.06797257
68	0x3d974583	0.07386305
69	0x3cdd6317	0.027024789
70	0xbc9b5ea5	-0.018966028
71	0x3d40d814	0.04708107
72	0xbd4b12b4	-0.049578384
73	0xbb1195df	-0.0022214574
74	0x3be5013a	0.0069886716
75	0x3d9e6b2d	0.07735286
76	0x3d6419b2	0.055688567
77	0xbc45dff8	-0.012077324
78	0xbbcedb7c	-0.0063127857
79	0xbc7ae015	-0.015312214
80	0xbdaaf5cc	-0.08347663
81	0xbcb5c810	-0.022190124
82	0xbcd00de3	-0.025397247
83	0x3dc7e194	0.097598225
84	0x3d05b8e6	0.032647036
85	0xbd4ccbc8	-0.04999903
86	0x3db19625	0.08671216
87	0xaeca44eb	-9.198139e-11
88	0x3ccd0a8f	0.025029449
89	0x3da50c8a	0.08059032
90	0xbd5d81aa	-0.054078735
91	0x3d2bf572	0.04198212
92	0x3b47b500	0.0030472875
93	0xbd399cda	-0.0453156
94	0xbcaf22ea	-0.021378953
95	0x3c50111b	0.012699391
96	0xbd27401f	-0.040832635
97	0x3d990241	0.07471133
98	0xbd574b42	-0.052562006
99	0xbd5016ad	-0.050802875
100	0x3d087ea8	0.033323914
101	0x3d4e2701	0.050330166
102	0x3d397ba5	0.045283932
103	0xbd55eda8	-0.0522286
104	0xbb502dbc	-0.003176554
105	0x3dd45d0c	0.1036931
106	0x822e20df	-1.2792935e-37
107	0xba419adf	-0.00073854433
108	0x3ddfaae6	0.10921268
109	0x3deb294a	0.11482485
110	0x3dd108b1	0.10206736
111	0x3d76f97b	0.060296517
112	0x3cc0204a	0.023452897
113	0xbcf60352	-0.03003088
114	0xbd085ae8	-0.03328982
115	0x3aea0770	0.0017855
116	0xbd6eb521	-0.058278207
117	0x3bdf38fc	0.006812213
118	0x3dee50e3	0.11636522
119	0xbd51b01b	-0.051193338
120	0x3d9af716	0.07566659
121	0x3d6b2a9a	0.057413675
122	0xbd03fae4	-0.03222169
123	0xbd6a1a3c	-0.057153925
124	0x3d573152	0.05253727
125	0xbd1761e9	-0.03695861
126	0xbd49c799	-0.049262617
127	0x3c6aac4c	0.014323305

fc3.weight f4 [1, 128]
0	0xbccf77e6	-0.025325727
1	0x3c9473c5	0.01812161
2	0xbda6d9ab	-0.081469856
3	0xbd777c27	-0.060421135
4	0x3d4c1ca9	0.04983202
5	0x3dca64fb	0.09882542
6	0x3da79246	0.08182196
7	0x3dfe1598	0.124064624
8	0xbd8692c3	-0.06570961
9	0x397c3008	0.00024050486
10	0xbc7584a6	-0.014985239
11	0xbc774423	-0.015091929
12	0xbcaf2466	-0.02137966
13	0x3dd044a3	0.101693414
14	0xbd192e23	-0.037397515
15	0x3d5d6b46	0.054057382
16	0x3d36eb26	0.04465785
17	0x3d45e340	0.048312426
18	0xbd40cd49	-0.047070775
19	0x3d850c3e	0.06496476
20	0xbd171bfe	-0.03689193
21	0xbd3bb50f	-0.045826968
22	0x3db725ad	0.08942733
23	0xb9a8fb8f	-0.00032230883
24	0xbdaa0725	-0.08302144
25	0x3d7b6b46	0.0613816
26	0x3d266b94	0.04062994
27	0x3d65baf2	0.056086488
28	0xbd478101	-0.048707012
29	0xbce59572	-0.028025363
30	0xbcf8bcf3	-0.030363536
31	0xbd455f57	-0.048186626
32	0xbda43447	-0.080177836
33	0xbd88d1af	-0.06680619
34	0x3d9512c7	0.07278972
35	0x3d958ee5	0.073026456
36	0x3c471005	0.012149815
37	0xbd6b6c26	-0.057476185
38	0xbc1237d7	-0.008924446
39	0x3dffb2c7	0.12485271
40	0xbb4e520f	-0.0031482016
41	0x3d9764fc	0.07392308
42	0x3de9f203	0.11423113
43	0xbce3a1a3	-0.027787035
44	0xbc89db44	-0.016828187
45	0x3df299db	0.11845752
46	0x3bfc4194	0.007698247
47	0x3d2e7b66	0.04259815
48	0x3d9e10f4	0.07718077
49	0x3d42869d	0.04749166
50	0x3b3e6a24	0.0029054964
51	0xbc79ca1b	-0.01524594
52	0xbd4caefc	-0.049971566
53	0x3d803d17	0.06261652
54	0x3d91196b	0.07084926
55	0xbd08c1ab	-0.03338782
56	0xbc82d318	-0.015969798
57	0xbcce95d8	-0.025217935
58	0xbd80b191	-0.06283868
59	0xbd293ad8	-0.041315883
60	0x3dc86746	0.09785323
61	0xbd999bf7	-0.07500451
62	0xbd2cfafc	-0.042231545
63	0x3c650c12	0.013979929
64	0x3d4dbb46	0.050227426
65	0x3db18136	0.08667223
66	0x3dd960bf	0.10614156
67	0xbd97ce00	-0.07412338
68	0xbb8193fe	-0.0039544096
69	0xb8e2d3c7	-0.000108159664
70	0x3d661b9a	0.056178667
71	0x3de49092	0.11160387
72	0x3da1d5b3	0.07902088
73	0x3c2f7f05	0.010711436
74	0x3dddabf2	0.108238116
75	0x3d904fc5	0.07046465
76	0xbd21b336	-0.03947755
77	0x3caee310	0.021348506
78	0xa807310a	-7.504639e-15
79	0x3d646f59	0.055770252
80	0xbd999c43	-0.07500508
81	0xbcc5c039	-0.02413951
82	0x3d21769b	0.03941975
83	0x3d8e7658	0.06956166
84	0xbd1e05c2	-0.03857971
85	0x3d4afc34	0.049556926
86	0x3e017115	0.12640794
87	0xbd003792	-0.031302996
88	0x3d8b2ee6	0.067960545
89	0xbc2eeaea	-0.010676125
90	0xbda7630c	-0.081731886
91	0xbd599d62	-0.053128608
92	0x3d8ecb6e	0.06972395
93	0xbd20f6d7	-0.039297905
94	0x3e02b6a1	0.1276498
95	0x3cbabb8d	0.02279451
96	0x3dc01e29	0.093807526
97	0xbd1a267a	-0.03763435
98	0x3b86a517	0.0041090357
99	0xbd839fb2	-0.06426944
100	0x3d5cff90	0.05395466
101	0x9580c21a	-5.2005027e-26
102	0x3dabebfa	0.08394618
103	0xbd10f44b	-0.035389226
104	0xbd232c22	-0.03983701
105	0x3dfb4cc5	0.12270502
106	0x3b5bf9ae	0.0033565569
107	0xbd33d991	-0.04390866
108	0x3dad1c6f	0.08452689
109	0x3d5a188f	0.053246077
110	0x3d121f9c	0.035674676
111	0x3d853a96	0.06505315
112	0x3ca17e84	0.019713648
113	0x3a6c39a4	0.00090112747
114	0x3cbe011c	0.023193888
115	0x3d5634cd	0.05229645
116	0xbd3cf81e	-0.04613506
117	0x3daa7617	0.08323305
118	0x3e0176e0	0.12643003
119	0xbd4cb47a	-0.049976803
120	0xbd9672b5	-0.073460974
121	0x3da00568	0.07813531
122	0xbc6e7e14	-0.014556427
123	0xbd9ca531	-0.07648695
124	0x3e004e19	0.12529792
125	0x3dcd7fb4	0.10034123
126	0x3d27bf04	0.04095365
127	0xbc83b00b	-0.016075155
