notebooks/model/dlq_agent_model_v001.pth (torch, 473290 bytes, 5 tensors)

fc1.weight f4 [128, 788]
0	0xbb802780	-0.0039109588
1	0x3b3aa6b0	0.00284807
2	0x3d0960d7	0.03353962
3	0x3c620474	0.013795007
4	0x3d0eb319	0.03483877
5	0xbc697d8c	-0.014251124
6	0xbc0f3ebc	-0.008742984
7	0x3b9fb020	0.0048732907
8	0xbbf79dd0	-0.0075566545
9	0x3d073efd	0.033019055
10	0xbd06c676	-0.03290411
11	0xbd110002	-0.035400398
12	0xbd0ac7f6	-0.033882104
13	0xbcee3152	-0.029076252
14	0x3c2c889c	0.010530617
15	0x3d0594d9	0.032612655
16	0x3c98fc20	0.01867491
17	0xbcccaabc	-0.024983756
18	0x3bec86f0	0.0072182342
19	0xbcb40742	-0.021976117
20	0xbc0aac04	-0.008463863
21	0x3ccfaa74	0.025349833
22	0x3d022619	0.031774614
23	0xbcd0121e	-0.025399264
24	0x3cb5f38a	0.022210855
25	0x3c851de8	0.016249612
26	0x3c48b4e8	0.012250163
27	0x3aeb5480	0.001795426
28	0x3b99b760	0.0046910495
29	0x3ce678ee	0.028133836
30	0x3a012c40	0.0004927553
31	0xbbee39b0	-0.0072700605
32	0xbcbb1eb0	-0.022841781
33	0xbc620e98	-0.013797425
34	0x3c1682e8	0.009186484
35	0xbbdfabcc	-0.0068258997
36	0x3cad7e38	0.02117835
37	0x3cbb8b90	0.022893697
38	0x3c1cca40	0.0095697045
39	0xbd0773a3	-0.033069264
40	0x3c569158	0.013096176
41	0xbcb628d5	-0.022236267
42	0x3c028e08	0.007968433
43	0x3ce9173a	0.028453458
44	0xbc5c3a18	-0.013441585
45	0xbc625752	-0.013814764
46	0xbce4aae2	-0.027913515
47	0xbb8b65c0	-0.004254073
48	0xbcdc2ae2	-0.026875917
49	0xbd05dc1e	-0.032680623
50	0xbd0fd0fb	-0.03511141
51	0x3bc4e808	0.0060091056
52	0x3cf6492e	0.030064192
53	0xbc66db36	-0.01409035
54	0x3bfbf8d0	0.007689573
55	0xbc8c1b2e	-0.017102804
56	0x3c872950	0.016499192
57	0xbd0cc3fa	-0.034366585
58	0xbd0bf594	-0.03416975
59	0xbd0dbb1f	-0.03460228
60	0xbbab0434	-0.005219007
61	0x3d0152d1	0.03157312
62	0xbd0be203	-0.03415109
63	0xbd086bdf	-0.033306
64	0x3a4e6cc0	0.00078744814
65	0x3d04ca71	0.032419626
66	0xbcc2304c	-0.02370467
67	0xbbaa83a4	-0.005203681
68	0xbcf4da16	-0.029889148
69	0x3c969102	0.018379692
70	0xbc881751	-0.01661268
71	0xbd0a8afc	-0.033823952
72	0xbbddc19d	-0.0067674653
73	0xb4ffbc00	-4.763424e-07
74	0x3ca1d2f2	0.019753907
75	0xbce9349e	-0.028467473
76	0x3cc5de21	0.02415377
77	0xbcde178c	-0.027110837
78	0x3b94a9d0	0.004536845
79	0x3b925ae4	0.0044664014
80	0xbc9d022e	-0.019166078
81	0x3cf7a0c2	0.030228022
82	0x3c9d4862	0.019199554
83	0x3cf1d6be	0.029521342
84	0xbcf74437	-0.030183895
85	0xbc43e5e4	-0.011956666
86	0xbcaf23bc	-0.021379344
87	0x3cd8a4ee	0.026445832
88	0x3aa05d00	0.0012234747
89	0xbcddbe46	-0.027068269
90	0xbce4a1f6	-0.02790926
91	0xbcf8198a	-0.030285615
92	0xbaaa8078	-0.0013008257
93	0x3bbc407c	0.005744992
94	0xbcfa8909	-0.030582922
95	0xbcafd9da	-0.021466184
96	0xbc10eedc	-0.008846011
97	0x3c38a280	0.011269212
98	0xbd059bee	-0.03261941
99	0x3c295264	0.010334585
100	0xba519440	-0.0007994808
101	0x3cd1b242	0.025597695
102	0x3ceca886	0.028888952
103	0x3cca0bba	0.024663795
104	0x3bf532d0	0.007482864
105	0x37f5b800	2.9291958e-05
106	0x3d0bf110	0.034165442
107	0xbc2a1e58	-0.010383211
108	0x3cece785	0.02891899
109	0x3c718ebd	0.014743504
110	0xb9cd4570	-0.00039152382
111	0xbb17b741	-0.002315
112	0xbca1fe56	-0.019774597
113	0xbcc26c0b	-0.02373316
114	0xbce0182e	-0.02735528
115	0x3be36ce8	0.006940473
116	0xbd0bd649	-0.034139905
117	0xbc984b14	-0.018590488
118	0x3c7c4ea8	0.0153996125
119	0xbc49c872	-0.012315856
120	0xbd000efc	-0.03126429
121	0x3c391e0c	0.011298668
122	0x3d0c7c81	0.034298424
123	0x3caaf488	0.020868555
124	0x3ad7c618	0.0016462235
125	0xbcb89eae	-0.022536602
126	0x3d00d47a	0.031452633
127	0x3cb5db06	0.022199165
128	0x3cc6df18	0.024276301
129	0xbcb47343	-0.022027617
130	0xbc1b5bc1	-0.009482325
131	0x3bf8e0c0	0.0075951517
132	0xbb850538	-0.00405946
133	0x3cbd5c3a	0.023115266
134	0x3ceb2d76	0.0287082
135	0x3c51d9c8	0.012808271
136	0xbbcb87ac	-0.0062112417
137	0x3bb24ab0	0.0054410324
138	0xbc2f24e8	-0.0106899515
139	0xbb978720	-0.0046242625
140	0xbc743e1b	-0.014907385
141	0x3c33893c	0.010958012
142	0xbc18b6bc	-0.009320911
143	0x3a144055	0.0005655338
144	0x3cf49865	0.029857824
145	0xbcc0d2ce	-0.02353802
146	0xbbb4d4b9	-0.0055185226
147	0x3ccea5cb	0.02522554
148	0xbc82412a	-0.015900213
149	0x3c6af8b0	0.014341518
150	0xbbeb2038	-0.0071754716
151	0xbc421222	-0.0118451435
152	0x3a91dae0	0.0011127852
153	0x3ce8e86a	0.028431136
154	0xbcf29b93	-0.0296152
155	0x3c68fad0	0.014219955
156	0x3d051833	0.03249378
157	0xbcc5b8b4	-0.024135925
158	0xbb4ad3de	-0.0030949037
159	0xbc88cfc1	-0.016700627
160	0xbcdae2a8	-0.026719406
161	0x3c099b88	0.008398898
162	0x3bb7189b	0.00558765
163	0x3c5e32e1	0.013561935
164	0xbc8e4ddb	-0.017371109
165	0xbc4eee6d	-0.012630087
166	0x3cad747e	0.021173712
167	0x3d1138bd	0.0354545
168	0xbcefcfa6	-0.02927382
169	0x3ce4170e	0.027843025
170	0xbd11075f	-0.03540742
171	0xbb0771b0	-0.0020667128
172	0xbd07989e	-0.03310453
173	0xbcea2cf8	-0.028585896
174	0x3c6b1548	0.014348336
175	0x3cea835e	0.028627094
176	0x3a82a7df	0.0009968242
177	0xbc92854f	-0.017885832
178	0xbcb078b4	-0.02154193
179	0x3c67feca	0.014159868
180	0x3c72a56f	0.01480995
181	0xbc41e97e	-0.011835454
182	0x3a130598	0.00056084385
183	0x3cb24006	0.021759044
184	0xbb396fc0	-0.0028295368
185	0x3d045a49	0.032312665
186	0xbba69610	-0.005083807
187	0x3cd677fa	0.026180256
188	0xbcd935ed	-0.026514972
189	0xbce22b08	-0.02760841
190	0x3a24b000	0.00062823296
191	0x3cd382ea	0.02581926
192	0xbd18cf74	-0.037307218
193	0x3cafbecd	0.021453286
194	0xbcecca43	-0.02890504
195	0x3b67ff78	0.0035400074
196	0x3d036998	0.032083124
197	0x3be56d55	0.007001559
198	0xbc8eaa02	-0.01741505
199	0xbc0b2c01	-0.008494378
200	0x3c1805f8	0.009278767
201	0x3c0730d8	0.008251391
202	0x3cf94b3a	0.030431379
203	0xbce71732	-0.028209303
204	0x3d0cc8ed	0.034371305
205	0x3cb86fc8	0.022514239
206	0xbcc278eb	-0.023739299
207	0x3cf8a882	0.030353788
208	0xbd034fcd	-0.032058526
209	0x3ba16460	0.0049252957
210	0xbcbfc123	-0.023407524
211	0xbd0a6a52	-0.0337928
212	0xbc2a319e	-0.010387806
213	0x3cd9ea28	0.026600912
214	0xbcd383be	-0.025819656
215	0xbb1fc296	-0.0024377457
216	0xbcc72a8d	-0.024312282
217	0xbbe7ab5c	-0.007069988
218	0x3b5f12b0	0.0034038238
219	0x3cacdfce	0.021102812
220	0x3ce60092	0.028076444
221	0xbb819e78	-0.0039556585
222	0x3c63d58c	0.013905894
223	0x3b2ed000	0.002667427
224	0xbc67ed20	-0.014155656
225	0x3c6e16e0	0.014531821
226	0x3cebae62	0.028769676
227	0xbc21d990	-0.009878531
228	0x3c6476a8	0.0139443055
229	0xbb4bb7b0	-0.0031084828
230	0x3bd04358	0.0063556843
231	0x3aee48a0	0.0018179603
232	0x3d0e3e35	0.034727294
233	0xbca96be8	-0.020681337
234	0xbc7f3272	-0.015575992
235	0x3cae2402	0.021257404
236	0xbd09f931	-0.033684913
237	0x3c126d5c	0.008937206
238	0x3cb7156a	0.022349078
239	0x3ccd0b14	0.025029697
240	0xba577400	-0.00082188845
241	0x3bb08828	0.005387325
242	0xbccd1cf3	-0.025038218
243	0x3b076790	0.0020661093
244	0x3bc7e338	0.0061000846
245	0xbc863807	-0.016384138
246	0xbb613de0	-0.0034369156
247	0xbc33a350	-0.01096423
248	0xbd0fce60	-0.035108924
249	0x3a02bb00	0.00049869716
250	0x3d08c879	0.03339431
251	0xbcb1185a	-0.021618057
252	0x3c1917d4	0.00934406
253	0x3c8c60e0	0.017136037
254	0x3beec058	0.0072861128
255	0x3cd27b06	0.025693428

fc1.bias f4 [128]
0	0xbc583dcd	-0.013198328
1	0xbd014260	-0.03155744
2	0x3b6aa54b	0.0035804089
3	0xbd0c7225	-0.034288544
4	0x3c7dba2a	0.0154862795
5	0x3cf61681	0.030040028
6	0xbcc21d04	-0.023695476
7	0xbcf5dd7c	-0.030012839
8	0xbc4c3902	-0.012464764
9	0x3cfc5740	0.030803323
10	0xbc269bac	-0.010168951
11	0xbadd6978	-0.0016892394
12	0x3c5175ed	0.012784463
13	0x3d03612a	0.032075085
14	0x3b322f09	0.002718868
15	0x3c5a98c2	0.013342084
16	0xbbb9adbb	-0.0056664622
17	0x3be90b31	0.00711193
18	0x3a147f32	0.00056647055
19	0xbc81dd66	-0.015852641
20	0xbcb25319	-0.02176814
21	0x3ccf3945	0.025295863
22	0xbcef8254	-0.02923695
23	0xbcd88ac7	-0.026433362
24	0xbc42ad68	-0.011882164
25	0xbc969496	-0.018381398
26	0xbcca9dd1	-0.024733456
27	0x3b47a6c5	0.0030464393
28	0x3cc208f2	0.023685906
29	0x3c91b53e	0.017786618
30	0xbc6ea408	-0.014565475
31	0xbbf3bddc	-0.0074384045
32	0x3ca8434e	0.020539906
33	0x3bd1c1c0	0.0064012706
34	0xbd0c9a81	-0.034327034
35	0xbd081fd4	-0.03323348
36	0x3c59c5a4	0.01329175
37	0xbc71169c	-0.014714863
38	0xbbc25c5f	-0.0059314216
39	0x3cd9e7fc	0.026599877
40	0x3d0a9192	0.033830233
41	0x3c96a7b4	0.018390514
42	0xbcf5b62e	-0.029994097
43	0x3b73e64e	0.003721613
44	0xbca4597e	-0.020062204
45	0xbc0f5762	-0.008748861
46	0xbb87d0f4	-0.004144782
47	0x3d016cee	0.031598024
48	0x3c4e7acd	0.01260252
49	0x3cf00ab1	0.029301973
50	0xbcca8a77	-0.024724228
51	0x3c958b54	0.018254913
52	0xbbfe7391	-0.0077652414
53	0x3b8e5d1c	0.0043445956
54	0x3cb5f46c	0.022211276
55	0xbca19c4b	-0.019727847
56	0xbbb8d544	-0.0056406576
57	0x3cfc9ff1	0.030837985
58	0xba181dc9	-0.0005802778
59	0x3cd0af88	0.025474325
60	0xbcdb0738	-0.02673684
61	0x3cdb234b	0.026750227
62	0x3c8cb060	0.017173946
63	0x3c4cac81	0.0124923
64	0x3acf1df6	0.0015801776
65	0xbcf39487	-0.02973391
66	0xbd0458a3	-0.032311093
67	0xbcaff4cc	-0.021479033
68	0xbca88db9	-0.020575391
69	0x3c8686fb	0.016421786
70	0xbca40b3a	-0.020024884
71	0x3cdd96da	0.02704947
72	0xbc8748b9	-0.016514169
73	0x3bd6453c	0.006539015
74	0xbcb99c16	-0.022657435
75	0x3bcab24a	0.0061858045
76	0x3cae2a55	0.02126042
77	0x3caeb948	0.021328583
78	0x3d0c0498	0.03418407
79	0x3d0e7574	0.03477998
80	0xbb33e746	-0.0027451082
81	0xbcf3157f	-0.029673336
82	0x3d10c6bc	0.035345778
83	0xbc8ef5c9	-0.017451184
84	0x3aee4e15	0.0018181229
85	0xbc14fb9d	-0.009093192
86	0xbbced3ad	-0.006311855
87	0xbc82448e	-0.01590183
88	0xbd1a3bfd	-0.037654866
89	0xbc992d9d	-0.018698508
90	0xbc1ee66b	-0.009698491
91	0x3cfc491b	0.030796578
92	0x3b884363	0.0041584237
93	0xbcef3043	-0.029197818
94	0xbcc8311b	-0.024437478
95	0xbcdbda46	-0.02683748
96	0xbc1a56c7	-0.009420103
97	0xbc6fa452	-0.014626579
98	0x3c3872a2	0.011257799
99	0x3d16c1d4	0.036805943
100	0xbc8675ea	-0.016413648
101	0x3b457277	0.003012804
102	0xbb388573	-0.0028155714
103	0xbcd82b9b	-0.02638798
104	0x3c8b471c	0.017001681
105	0xbba806cd	-0.005127764
106	0x3b0abdee	0.0021170336
107	0x3c90c4c5	0.017671952
108	0x3c9e232a	0.019303877
109	0x3b0de662	0.0021652211
110	0xbc4b0d3d	-0.012393293
111	0xbc93a0f5	-0.018021086
112	0x3c86f06a	0.01647206
113	0xbc556070	-0.013023481
114	0xbcc54779	-0.024081932
115	0xbcf1d8db	-0.02952235
116	0x3b2a9a63	0.0026031963
117	0x3c8c9660	0.017161548
118	0xbc8130bc	-0.015770309
119	0x3cbefb4b	0.023313185
120	0x3cbab88d	0.022793079
121	0x3b9c18a7	0.004763681
122	0x3ca088f3	0.019596552
123	0xbbb0aa8a	-0.0053914236
124	0xbc3d7e88	-0.011565812
125	0xbcf9c7a7	-0.03049071
126	0xbbba8b7f	-0.0056928988
127	0xbcf39807	-0.029735578

fc2.weight f4 [128, 128]
0	0xbd252356	-0.040316902
1	0x3d85c536	0.065317556
2	0x3d1cd500	0.03828907
3	0xbb1519fa	-0.002275108
4	0xbd4b4091	-0.049622122
5	0x3d04a001	0.032379154
6	0x3cb4b044	0.022056706
7	0xbc13dc16	-0.009024641
8	0x3da18208	0.078861296
9	0xbc6efe5c	-0.014587011
10	0x3ccf9654	0.025340237
11	0xbdbb78cd	-0.091539
12	0x3c9f63a6	0.019456696
13	0x3d8e6da3	0.06954505
14	0xbdbb5284	-0.09146598
15	0xbcc3c1d7	-0.023896141
16	0x3d90b9e3	0.07066705
17	0xbd9f5904	-0.0778065
18	0x3c1c375c	0.009534683
19	0x3d9c559d	0.07633517
20	0x3d1a0ffb	0.037612896
21	0x3c9988d0	0.018741995
22	0x3a5e45c5	0.00084790244
23	0x3cddb9d9	0.027066158
24	0xbd7bb515	-0.06145199
25	0xbd5ddc6d	-0.054165293
26	0xbcf6ff6e	-0.030151095
27	0xbd840d30	-0.06447828
28	0xbcbf2270	-0.02333185
29	0x3d2279a4	0.039666787
30	0xbd8bcaa5	-0.06825761
31	0x3d799510	0.060933173
32	0x3d363246	0.04448154
33	0x3c5785bb	0.013154442
34	0x3cc08b9d	0.023504073
35	0xbcdc8c86	-0.026922476
36	0xbc521f9a	-0.012824917
37	0x3c51b47d	0.012799379
38	0xbd2b4ff3	-0.041824292
39	0xbd995ca8	-0.07488376
40	0x3d920b62	0.07131077
41	0xbd9c1292	-0.076207295
42	0x3cced26f	0.025246827
43	0x3c9f251f	0.01942688
44	0x3ca621e7	0.020279838
45	0x3d5b1279	0.053484414
46	0xbd31dbfc	-0.043422684
47	0xbd4e127d	-0.0503106
48	0xbd0b9c73	-0.03408475
49	0xbd06ce6f	-0.032911714
50	0xbdbf5dc8	-0.09344059
51	0xbba9ac58	-0.0051780157
52	0x3c1b77f5	0.009489049
53	0x3d7b8222	0.0614034
54	0xbd202c12	-0.03910453
55	0x3a10be83	0.00055215525
56	0x3bb54b1b	0.005532635
57	0xbd1f9265	-0.038957972
58	0xbd6f776e	-0.058463506
59	0xbcbf83d4	-0.02337829
60	0x3daa59ac	0.08317885
61	0x3cbaa32c	0.022782885
62	0xbd31ba38	-0.043390483
63	0x3d99ba0a	0.07506187
64	0x3d334041	0.04376245
65	0xbda3c69e	-0.079968676
66	0x3d5f62fc	0.05453776
67	0x3da8ebfb	0.08248135
68	0x3d050b19	0.032481287
69	0xbcaf6afd	-0.02141332
70	0x3da6a6cd	0.081372835
71	0xbd92cf89	-0.071684904
72	0xbdbe85c6	-0.09302859
73	0xbd323fc7	-0.043517854
74	0xbcc22a98	-0.02370195
75	0xbcf8c01a	-0.030365039
76	0xbda77313	-0.081762455
77	0x3d87d7c0	0.06632948
78	0x3cdb02b4	0.026734687
79	0x3ba2044f	0.0049443613
80	0x3cffb8f7	0.031216128
81	0x3d6a7522	0.057240613
82	0xbd01664a	-0.03159169
83	0x3d875347	0.06607681
84	0xbd2aee27	-0.041731026
85	0xbd8ff89e	-0.07029842
86	0xbd8b4788	-0.06800753
87	0xbd57f057	-0.05271944
88	0xbd591e6e	-0.053007536
89	0x3d914c7c	0.07094666
90	0xbd2aeb30	-0.0417282
91	0x3c36074c	0.011110138
92	0x3d7fc888	0.0624471
93	0xbdb956ec	-0.09049782
94	0xbc522daf	-0.012828275
95	0x3cf1b5ea	0.029505689
96	0x3d44ac55	0.04801591
97	0xbd97d935	-0.07414476
98	0x3d9b1385	0.075720824
99	0x3d2945e8	0.041326433
100	0xbd9099bf	-0.07060575
101	0x3d9077fb	0.070541345
102	0xbd028527	-0.031865265
103	0xbc12235e	-0.008919565
104	0x3cb2ccf5	0.021826247
105	0x3d73b0d8	0.059494823
106	0xbd37d3c6	-0.044879697
107	0x3d80f86c	0.06297383
108	0x3c2daf8f	0.010600938
109	0x3d1b2b68	0.037883192
110	0xbc625689	-0.013814577
111	0xbc61c4b2	-0.013779806
112	0x3caaf25f	0.020867525
113	0x3d89af37	0.06722873
114	0xbd6cbd40	-0.05779767
115	0xbae5d9f2	-0.0017536266
116	0x3d8f3dd5	0.069942154
117	0xbd11b646	-0.03557422
118	0xbd2da671	-0.04239506
119	0xbda3191f	-0.07963776
120	0xbd89d2c3	-0.06729653
121	0xbdb507f5	-0.08839408
122	0xbd816ff0	-0.063201785
123	0x3d70742f	0.05870455
124	0x3c5dd10e	0.013538612
125	0xbd8146dd	-0.06312344
126	0xbda9fe55	-0.08300463
127	0xbd196462	-0.037449248
128	0x3d8e4c5e	0.0694816
129	0x3ce1b0ac	0.027550064
130	0x3cbffdc6	0.023436438
131	0xbd27615b	-0.04086433
132	0x3d171dd7	0.036893692
133	0xbda874c7	-0.082253985
134	0xbdacfcbf	-0.08446645
135	0xbc247a24	-0.010038886
136	0xbd2e37cc	-0.04253368
137	0xbc989844	-0.018627293
138	0xbd7f24d2	-0.062290974
139	0xbc179c35	-0.009253551
140	0x3cb9b9b8	0.022671565
141	0xbd6fb9f9	-0.058526967
142	0xbd869903	-0.065721534
143	0xbd9b2b5d	-0.0757663
144	0x3d5eb3cb	0.054370683
145	0x3c9d1dc1	0.019179227
146	0x3c8c2322	0.017106596
147	0xbca52eb2	-0.020163868
148	0x3bff60ac	0.0077935066
149	0xb99aee08	-0.00029550516
150	0xbd482646	-0.048864625
151	0xbd83f0db	-0.06442424
152	0x3d8314f4	0.06400481
153	0xbc90412a	-0.017609198
154	0x3d636bf9	0.055522893
155	0x3d1de991	0.038552824
156	0x3d8107b7	0.063002996
157	0x3bf8eba8	0.007596452
158	0x3d97e2b1	0.07416285
159	0xbc17530b	-0.009236108
160	0x3d48536c	0.048907682
161	0xbda2dedd	-0.07952664
162	0xbcb6ee70	-0.022330493
163	0xbca12b85	-0.019674072
164	0xbcc141c4	-0.02359093
165	0x3d21d3ea	0.039508738
166	0x3d40017d	0.04687642
167	0x3bde2fdc	0.0067806076
168	0x3d9e9c0b	0.077446066
169	0xbd7536c3	-0.059866678
170	0xbc0cc6a2	-0.00859228
171	0xbd58a1af	-0.05288857
172	0xbd94af34	-0.0725998
173	0x3d67c53e	0.05658459
174	0xbc02ee43	-0.007991376
175	0xbda4964b	-0.080364786
176	0xbd691962	-0.056908973
177	0xbca109b0	-0.01965794
178	0x3c0da255	0.00864466
179	0x3c874789	0.016513603
180	0xbd950388	-0.07276064
181	0xbcb4d565	-0.02207441
182	0x3cbe10b2	0.02320132
183	0xbbaf21f3	-0.0053446232
184	0xbae3937a	-0.0017362677
185	0x3d517890	0.051140368
186	0x3d568ab6	0.05237838
187	0x3da38710	0.079847455
188	0x3db5526d	0.08853612
189	0xbce2da44	-0.027691968
190	0xbda00dac	-0.07815108
191	0x3af41057	0.0018620592
192	0xbd43c4a6	-0.04779496
193	0x3d11dabc	0.035608992
194	0x3d0fd83b	0.035118323
195	0xbda5f102	-0.08102609
196	0xbcf9b767	-0.03048296
197	0x3d26cef9	0.04072473
198	0x3c3355a4	0.010945711
199	0x3d692741	0.0569222
200	0xbd63269d	-0.055456746
201	0x3d6efa3b	0.058344107
202	0xbd896cc2	-0.06710197
203	0xb8a808e8	-8.012523e-05
204	0xbd5d60bf	-0.054047342
205	0xbd206432	-0.039158054
206	0xbd9519f8	-0.07280344
207	0x3d81cf14	0.06338325
208	0xbca4437e	-0.020051714
209	0x3c95fd5e	0.018309291
210	0x3d09ad29	0.033612404
211	0x3d114f5b	0.03547607
212	0x3b9ca17a	0.0047799917
213	0x3d851184	0.064974815
214	0xbcaaafe0	-0.020835817
215	0xbc1c5d94	-0.009543795
216	0x3c8d0c14	0.017217673
217	0x3c993266	0.01870079
218	0x3d1cb6da	0.03826032
219	0x3d96c45e	0.07361673
220	0x3d7e331e	0.062060468
221	0x3d5b8a85	0.0535989
222	0x3c9ba4a0	0.018999398
223	0x3dacb216	0.08432405
224	0xbd929ee0	-0.07159209
225	0xbd54019c	-0.051759347
226	0x3cb866aa	0.022509892
227	0x3c165d54	0.009177525
228	0xbd561398	-0.05226478
229	0x3d60d17d	0.054887284
230	0xbd280e4d	-0.041029263
231	0xbd63a1d8	-0.055574268
232	0x3d4cac29	0.049968872
233	0x3d371a6a	0.044702925
234	0x3c324203	0.010879996
235	0x3db8a273	0.0901536
236	0xbda575bb	-0.08079096
237	0x3d8d0dbf	0.068873875
238	0xbcb07680	-0.02154088
239	0x3d5828de	0.05277335
240	0x3da810ba	0.08206315
241	0xbd8c7a03	-0.068592094
242	0x3b9bac5e	0.0047507724
243	0x3d8787a7	0.066176705
244	0x3d838d92	0.06423487
245	0xbdac2164	-0.08404806
246	0x3d8c7ad2	0.068593636
247	0x3d9e89b4	0.077411085
248	0x3d04e578	0.0324454
249	0x3d83d044	0.06436208
250	0x3da26d7a	0.07931037
251	0xbd73ed58	-0.05955252
252	0xbb9647c2	-0.004586191
253	0xbda21ecd	-0.07916031
254	0xbd910ab9	-0.07082123
255	0xbd097cc9	-0.03356627

fc2.bias f4 [128]
0	0xbd265bd2	-0.04061491
1	0xbdac63c0	-0.08417463
2	0x3d39a59b	0.04532395
3	0x3ce03f27	0.027373863
4	0xbd9260e3	-0.07147386
5	0xbcef60ba	-0.029220928
6	0x3d8b5091	0.06802476
7	0x3cdb07f4	0.02673719
8	0xbd139d8c	-0.03603892
9	0xbd0df00b	-0.03465275
10	0xbc3afb23	-0.011412415
11	0xbd1abbd0	-0.03777677
12	0xbdaaa917	-0.083330326
13	0xbc9c722c	-0.01909741
14	0xbd5345ed	-0.05158036
15	0x3da1df70	0.079039454
16	0x3d897c30	0.0671314
17	0x3b8ee069	0.004360248
18	0xbc3f03c9	-0.011658617
19	0xbd4ffe4b	-0.050779622
20	0xbcfd62d1	-0.030930908
21	0xbbe73012	-0.007055291
22	0x3cd519b0	0.026013225
23	0xbd869303	-0.06571009
24	0x3d1d3491	0.03838021
25	0xbc86009d	-0.016357714
26	0x3d0176d0	0.03160745
27	0x3b1b2409	0.0023672602
28	0x3c69b6b4	0.014264751
29	0xbcdf5eed	-0.027266944
30	0xbd49303c	-0.049118266
31	0xbd532e6f	-0.051557954
32	0xbcfe23b5	-0.031022886
33	0xbd984847	-0.07435661
34	0x3cd94b6a	0.026525218
35	0xbcf1eed6	-0.029532831
36	0xbd999a17	-0.075000934
37	0x3c6ba58c	0.014382731
38	0xbda2fb6d	-0.07958112
39	0x3d83f90b	0.064439856
40	0x39957e56	0.00028513622
41	0x39edd0a3	0.0004535961
42	0xbd17c18b	-0.03704981
43	0xbc54b849	-0.01298339
44	0x3c5e6952	0.013574915
45	0xbc6bbb93	-0.014387983
46	0x3d7ea1ad	0.062165905
47	0x3ccb56b5	0.024821619
48	0xbdb56445	-0.088570155
49	0xbda89b5d	-0.08232758
50	0xbd52baff	-0.051447865
51	0xbcb921e7	-0.022599174
52	0x3b4882a6	0.003059545
53	0xbd2794a1	-0.040913228
54	0x3cbf620c	0.023362182
55	0x3b8213cb	0.0039696447
56	0x3db544e5	0.08851031
57	0x3ce11766	0.027476978
58	0xbd33f80e	-0.043937735
59	0x3da9bee2	0.08288361
60	0xbce21f78	-0.027602896
61	0xbca52a28	-0.020161703
62	0x3d167e1b	0.036741357
63	0x3cd477c0	0.025936007
64	0x3c1ddafe	0.009634731
65	0xbcc49035	-0.023994545
66	0x3d83f48f	0.0644313
67	0x3d0f70a8	0.035019547
68	0x3d80d64f	0.06290876
69	0x3d986f69	0.07443125
70	0x3cbf09bb	0.02332007
71	0xbbec1d21	-0.007205621
72	0xbb300a68	-0.0026861671
73	0xbbb25c20	-0.005443111
74	0x3b994d0f	0.0046783756
75	0xbd8ca2af	-0.06866967
76	0x3d0044d2	0.031315632
77	0x3d8d1667	0.068890385
78	0xbd197eb6	-0.037474357
79	0xbda4ecb6	-0.080529615
80	0xbd8c7e60	-0.068600416
81	0x3d8d8c1a	0.06911488
82	0xbb8e59b8	-0.0043441914
83	0x3cbd200e	0.023086574
84	0x3da4d223	0.08047893
85	0x3dab7b29	0.083731
86	0xbda3a24d	-0.07989941
87	0x3d2e33d9	0.042529915
88	0x3d57b7a9	0.052665386
89	0x3d83633f	0.06415414
90	0xbd6b91c0	-0.057512045
91	0x3d9eb5f3	0.07749548
92	0x3da3ac2f	0.07991826
93	0xbda9c5c6	-0.082896754
94	0x3cf37ca9	0.029722529
95	0x3d419c21	0.047268037
96	0x3c978bc5	0.018499264
97	0x3d9b989d	0.07597468
98	0x3d66d12c	0.056351826
99	0x3d9e4047	0.07727104
100	0x3d9afab5	0.0756735
101	0xbcfeccc2	-0.031103496
102	0xbce1d941	-0.027569415
103	0x3d96bcab	0.07360204
104	0xbc026b7b	-0.007960196
105	0x3bd311c0	0.006441325
106	0xbd89d709	-0.06730468
107	0x3cf44f8b	0.029823085
108	0x3cd5c5b3	0.026095247
109	0x3c27cd40	0.0102418065
110	0xbd500ff3	-0.05079646
111	0xbd6be040	-0.05758691
112	0xbd7d6946	-0.061867975
113	0xbb8804eb	-0.004150977
114	0xbd047c0f	-0.032344874
115	0x3caaac72	0.020834181
116	0xbdaf9fbd	-0.085753895
117	0x3d886184	0.06659225
118	0x3d95e954	0.073198944
119	0x3d482257	0.048860874
120	0x3c1a2ad2	0.009409623
121	0xbd90285e	-0.070389494
122	0x3d054bac	0.03254287
123	0x3ca0671b	0.019580415
124	0xbd4e04f7	-0.050297704
125	0xbd922370	-0.071356654
126	0x3c02440c	0.007950794
127	0xbd58abd0	-0.05289823

fc3.weight f4 [1, 128]
0	0x3d66da16	0.056360327
1	0xbd0a2e96	-0.033735834
2	0x3d80a793	0.06281962
3	0x3d5d5a1e	0.05404102
4	0xbd4a22a7	-0.049349453
5	0xbb177884	-0.0023112604
6	0xbd8bf950	-0.06834662
7	0x3d20b9ef	0.03923982
8	0xbd5f2ae1	-0.054484252
9	0xbd49e97d	-0.049294937
10	0x3d852bdf	0.06502508
11	0xbca0ba7d	-0.019620175
12	0xbc0b7789	-0.008512386
13	0xbd9d016c	-0.07666287
14	0xbd7fbee2	-0.0624379
15	0xbbb55070	-0.0055332705
16	0xbdaa46eb	-0.08314308
17	0x3d219a24	0.03945364
18	0xbbbb7b86	-0.0057215123
19	0xbda7d715	-0.081953205
20	0x3c959c8a	0.01826312
21	0xbc9871cf	-0.018608956
22	0xbc02d172	-0.007984506
23	0xbcc81e57	-0.02442853
24	0x3d9e779e	0.07737659
25	0x3daa6d19	0.0832159
26	0xbc8a6194	-0.016892232
27	0xbca7f260	-0.020501316
28	0xbdab224c	-0.08356151
29	0x3cdb65bc	0.02678191
30	0x3d26c185	0.0407119
31	0x3d693477	0.0569348
32	0x3d0c360f	0.03423124
33	0xbdb003ed	-0.08594499
34	0xbd895444	-0.067055255
35	0xbda15948	-0.07878357
36	0x3d841c6e	0.06450735
37	0xbda349f0	-0.07973087
38	0x3d93fd4e	0.072260484
39	0xbd97ea73	-0.074177645
40	0xbd3c977d	-0.046042908
41	0xbd2dd506	-0.042439483
42	0x3ce8906e	0.028389182
43	0x3d4ccd2a	0.050000347
44	0x3d9de74c	0.07710132
45	0x3c212eb3	0.009837794
46	0x3c99c4a2	0.01877052
47	0xbd36a3a5	-0.044589657
48	0x3c2e3030	0.010631606
49	0x3c4b9c7e	0.012427447
50	0xbd09d184	-0.033647075
51	0xbc80ff2d	-0.015746677
52	0xbd98c12c	-0.074587196
53	0x3d5764e6	0.05258646
54	0xbd6695d3	-0.056295227
55	0xbd631a07	-0.055444743
56	0xbd55330f	-0.052050646
57	0x3d69d18d	0.05708461
58	0xbd81f532	-0.063455954
59	0xbd0df1c5	-0.034654398
60	0x3d804fb6	0.06265204
61	0xbd49fa37	-0.04931089
62	0xbd4e0b12	-0.050303526
63	0xbd26abfe	-0.04069137
64	0xbda3ab3c	-0.07991645
65	0xbd6c9dd7	-0.057767715
66	0xbd9233c6	-0.07138781
67	0xbd8177fd	-0.06321714
68	0xbd0bf1e8	-0.034166247
69	0xbd33bc95	-0.043881018
70	0xbd8f4c9c	-0.06997034
71	0x3d50cca5	0.050976414
72	0x3d9c7091	0.07638658
73	0xbd9ea0d8	-0.07745522
74	0x3cb6d2ce	0.022317316
75	0xbd37c74a	-0.04486779
76	0xbd854ddf	-0.06508993
77	0xbd05a9d2	-0.032632656
78	0x3c972f44	0.018455155
79	0xbd9aa0ed	-0.075502254
80	0xbd9cd4b1	-0.07657755
81	0x3a88a61c	0.0010425481
82	0xbdaef7e8	-0.08543378
83	0x3d3d9cc4	0.04629208
84	0xbd53d89a	-0.05172024
85	0xbd900a3a	-0.070332006
86	0xbc9bfcd6	-0.01904146
87	0x3d1d9c02	0.03847886
88	0x3c9efab7	0.01940666
89	0xbdb65680	-0.08903217
90	0x3d9fae8c	0.07796964
91	0xbd53e89c	-0.051735505
92	0xbc4ee289	-0.012627252
93	0x3d81d0b2	0.063386336
94	0x3d0ca214	0.034334257
95	0x3d180010	0.037109435
96	0x3b27ca9a	0.0025602938
97	0x3d6414cb	0.055683892
98	0x3d463e50	0.04839927
99	0x3da811f6	0.08206551
100	0x3d5cd563	0.05391444
101	0xbb37e8d8	-0.002806237
102	0xbccb74c1	-0.024835946
103	0xbdb5bea3	-0.08874252
104	0xbd358768	-0.044318587
105	0x3d6807c8	0.056648046
106	0x3d5916a1	0.053000096
107	0xbd95c9dc	-0.07313892
108	0xbd1ef61a	-0.03880892
109	0x3d7953a5	0.060870785
110	0x3dab4579	0.0836286
111	0xbd082a4c	-0.033243462
112	0xbc9a9f93	-0.018874919
113	0x3d8ce576	0.06879704
114	0xbc7e92fc	-0.0155379735
115	0x3b1cd422	0.0023930152
116	0x3d25be3a	0.040464617
117	0x3c824f21	0.015906872
118	0x3b9c0778	0.0047616325
119	0x3ce2ccb1	0.027685495
120	0xbd3efe9b	-0.04662953
121	0xbcfea858	-0.031086132
122	0xbdadf850	-0.084946275
123	0xbb513971	-0.0031925107
124	0x3d592440	0.053013086
125	0x3ce02e47	0.027365817
126	0x3d406436	0.04697057
127	0x3cd472f5	0.025933722
